…
### END CODE HERE ### 训练 123### START CODE HERE ### (1 line)happyModel.fit(x=X_train,y = Y_train,epochs=10,batch_size=32)### END CODE HERE ### 预测： 123456### START CODE HERE ### (1 line)preds = happyModel.evaluate(X_test,Y_test)### END CODE HERE ###print()print (\"Loss = \" + str(preds[0]))print (\"Test Accuracy = \" + str(preds[1])) 可以用summary()来看看详细信息： 1happyModel.summary() 1234567891011121314151617181920212223_________________________________________________________________Layer (type) Output Shape Param # =================================================================input_1 (InputLayer) (None, 64, 64, 3) 0 _________________________________________________________________zero_padding2d_1 (ZeroPaddin (None, 70, 70, 3) 0 _________________________________________________________________Conv0 (Conv2D) (None, 64, 64, 32) 4736 _________________________________________________________________bn0 (BatchNormalization) (None, 64, 64, 32) 128 _________________________________________________________________activation_1 (Activation) (None, 64, 64, 32) 0 _________________________________________________________________max_pool (MaxPooling2D) (None, 32, 32, 32) 0 _________________________________________________________________flatten_1 (Flatten) (None, 32768) 0 _________________________________________________________________fc (Dense) (None, 1) 32769 =================================================================Total params: 37,633Trainable params: 37,569Non-trainable params: 64_________________________________________________________________ 用plot_model()来得到详细的graph 12plot_model(happyModel, to_file='HappyModel.png')SVG(model_to_dot(happyModel).create(prog='dot', format='svg')) Part2: Residual Networks主要有两个步骤： 构建基本的ResNet的块 将块放到一起，变成一个网络，来
…
